Downloading data from https://storage.googleapis.com/tensorflow/tf-keras-datasets/mnist.npz
11490434/11490434 [==============================] - 1s 0us/step
x_train shape: (60000, 28, 28, 1)
60000 train samples
10000 test samples
Model: "sequential"
_________________________________________________________________
 Layer (type)                Output Shape              Param #
=================================================================
 conv2d (Conv2D)             (None, 26, 26, 32)        320
 max_pooling2d (MaxPooling2  (None, 13, 13, 32)        0
 D)
 conv2d_1 (Conv2D)           (None, 11, 11, 64)        18496
 max_pooling2d_1 (MaxPoolin  (None, 5, 5, 64)          0
 g2D)
 flatten (Flatten)           (None, 1600)              0
 dropout (Dropout)           (None, 1600)              0
 dense (Dense)               (None, 10)                16010
=================================================================
Total params: 34826 (136.04 KB)
Trainable params: 34826 (136.04 KB)
Non-trainable params: 0 (0.00 Byte)
_________________________________________________________________
Epoch 1/15





422/422 [==============================] - 14s 30ms/step - loss: 0.3617 - accuracy: 0.8901 - val_loss: 0.0844 - val_accuracy: 0.9762
Epoch 2/15




…
